_________________________________________________________________
Layer (type)                 Output Shape              Param #   
=================================================================
input_9 (InputLayer)         (None, 72, 11)            0         
_________________________________________________________________
sequential_18 (Sequential)   (None, 72, 11)            0         
_________________________________________________________________
sequential_17 (Sequential)   (None, 72, 3)             260369    
=================================================================
Total params: 260,369
Trainable params: 260,369
Non-trainable params: 0
_________________________________________________________________
_________________________________________________________________
Layer (type)                 Output Shape              Param #   
=================================================================
bidirectional_9 (Bidirection (None, 72, 256)           142336    
_________________________________________________________________
conv1d_19 (Conv1D)           (None, 72, 50)            102400    
_________________________________________________________________
average_pooling1d_10 (Averag (None, 72, 50)            0         
_________________________________________________________________
activation_19 (Activation)   (None, 72, 50)            0         
_________________________________________________________________
conv1d_20 (Conv1D)           (None, 72, 50)            12550     
_________________________________________________________________
average_pooling1d_11 (Averag (None, 72, 50)            0         
_________________________________________________________________
activation_20 (Activation)   (None, 72, 50)            0         
_________________________________________________________________
conv1d_21 (Conv1D)           (None, 72, 20)            3020      
_________________________________________________________________
activation_21 (Activation)   (None, 72, 20)            0         
_________________________________________________________________
time_distributed_6 (TimeDist (None, 72, 3)             63        
=================================================================
Total params: 260,369
Trainable params: 260,369
Non-trainable params: 0
_________________________________________________________________
emis : type : Normalizer 
fitted : True 
values : (0.9890608787536621, 0.006443938706070185) 
  
o3 : type : Normalizer 
fitted : True 
values : (3.6597821235773154e-06, 4.7702924348413944e-06) 
…
