…
ts : type : Normalizer 
fitted : True 
values : (283.5641174316406, 6.850484848022461) 
  

type : Prodkernel 
variable : [('pl', 'ts')] 
params :   
  
o3 : type : Level_Normalizer 
fitted : True 
values : [ … pl : type : Level_Normalizer 
fitted : True 
values : [… q : type : Level_Normalizer 
fitted : True 
values : [… type : Var Supression 
 values : ['pl', 'rl', 'ri', 'ts'] 

_________________________________________________________________
Layer (type)                 Output Shape              Param #   
=================================================================
input_1 (InputLayer)         (None, 72, 8)             0         
_________________________________________________________________
up_sampling1d_1 (UpSampling1 (None, 360, 8)            0         
_________________________________________________________________
average_pooling1d_1 (Average (None, 72, 8)             0         
=================================================================
Total params: 0
Trainable params: 0
Non-trainable params: 0
_________________________________________________________________
_________________________________________________________________
Layer (type)                 Output Shape              Param #   
=================================================================
Origin_Input (InputLayer)    (None, 72, 8)             0         
_________________________________________________________________
Conv_0 (Conv1D)              (None, 72, 32)            2560      
_________________________________________________________________
leakyrelu_0 (LeakyReLU)      (None, 72, 32)            0         
_________________________________________________________________
Conv_1 (Conv1D)              (None, 72, 64)            20480     
_________________________________________________________________
leakyrelu_1 (LeakyReLU)      (None, 72, 64)            0         
_________________________________________________________________
Conv_2 (Conv1D)              (None, 72, 64)            20480     
_________________________________________________________________
leakyrelu_2 (LeakyReLU)      (None, 72, 64)            0         
_________________________________________________________________
Conv_3 (Conv1D)              (None, 72, 128)           40960     
_________________________________________________________________
leakyrelu_3 (LeakyReLU)      (None, 72, 128)           0         
_________________________________________________________________
AVG_100 (MaxPooling1D)       (None, 36, 128)           0         
_________________________________________________________________
Conv_100 (Conv1D)            (None, 36, 30)            7710      
_________________________________________________________________
relu_100 (Activation)        (None, 36, 30)            0         
_________________________________________________________________
Conv_110 (Conv1D)            (None, 36, 30)            4530      
_________________________________________________________________
relu_110 (Activation)        (None, 36, 30)            0         
_________________________________________________________________
AVG_101 (MaxPooling1D)       (None, 18, 30)            0         
_________________________________________________________________
Conv_101 (Conv1D)            (None, 18, 50)            3050      
_________________________________________________________________
relu_101 (Activation)        (None, 18, 50)            0         
_________________________________________________________________
Conv_111 (Conv1D)            (None, 18, 50)            12550     
_________________________________________________________________
relu_111 (Activation)        (None, 18, 50)            0         
_________________________________________________________________
AVG_102 (MaxPooling1D)       (None, 9, 50)             0         
_________________________________________________________________
Conv_102 (Conv1D)            (None, 9, 128)            12928     
_________________________________________________________________
relu_102 (Activation)        (None, 9, 128)            0         
_________________________________________________________________
Conv_112 (Conv1D)            (None, 9, 150)            76950     
_________________________________________________________________
relu_112 (Activation)        (None, 9, 150)            0         
_________________________________________________________________
Flatten (Flatten)            (None, 1350)              0         
_________________________________________________________________
Dense_0 (Dense)              (None, 540)               729540    
_________________________________________________________________
relu_d_0 (Activation)        (None, 540)               0         
_________________________________________________________________
Dense_1 (Dense)              (None, 450)               243450    
_________________________________________________________________
relu_d_1 (Activation)        (None, 450)               0         
_________________________________________________________________
Dense_2 (Dense)              (None, 360)               162360    
_________________________________________________________________
relu_d_2 (Activation)        (None, 360)               0         
_________________________________________________________________
Reshape (Reshape)            (None, 9, 40)             0         
_________________________________________________________________
Ups_200 (UpSampling1D)       (None, 18, 40)            0         
_________________________________________________________________
Conv_200 (Conv1D)            (None, 18, 150)           18150     
_________________________________________________________________
relu_200 (Activation)        (None, 18, 150)           0         
_________________________________________________________________
Conv_210 (Conv1D)            (None, 18, 100)           60100     
_________________________________________________________________
relu_210 (Activation)        (None, 18, 100)           0         
_________________________________________________________________
Ups_201 (UpSampling1D)       (None, 36, 100)           0         
_________________________________________________________________
Conv_201 (Conv1D)            (None, 36, 128)           38528     
_________________________________________________________________
relu_201 (Activation)        (None, 36, 128)           0         
_________________________________________________________________
Conv_211 (Conv1D)            (None, 36, 128)           82048     
_________________________________________________________________
relu_211 (Activation)        (None, 36, 128)           0         
_________________________________________________________________
Ups_202 (UpSampling1D)       (None, 72, 128)           0         
_________________________________________________________________
Conv_202 (Conv1D)            (None, 72, 256)           98560     
_________________________________________________________________
relu_202 (Activation)        (None, 72, 256)           0         
_________________________________________________________________
Conv_212 (Conv1D)            (None, 72, 256)           393472    
_________________________________________________________________
relu_212 (Activation)        (None, 72, 256)           0         
_________________________________________________________________
Conv3_300 (Conv1D)           (None, 72, 150)           384000    
_________________________________________________________________
elu_300 (ELU)                (None, 72, 150)           0         
_________________________________________________________________
Conv3_301 (Conv1D)           (None, 72, 32)            24000     
_________________________________________________________________
elu_301 (ELU)                (None, 72, 32)            0         
_________________________________________________________________
Conv3_302 (Conv1D)           (None, 72, 16)            2560      
_________________________________________________________________
elu_302 (ELU)                (None, 72, 16)            0         
=================================================================
Total params: 2,438,966
Trainable params: 2,438,966
Non-trainable params: 0
_________________________________________________________________
__________________________________________________________________________________________________
Layer (type)                    Output Shape         Param #     Connected to                     
==================================================================================================
Input_RC0 (InputLayer)          (None, 16, 72)       0                                            
__________________________________________________________________________________________________
Last_flatten (Flatten)          (None, 1152)         0           Input_RC0[0][0]                  
__________________________________________________________________________________________________
Last_Dense_0 (Dense)            (None, 72)           83016       Last_flatten[0][0]               
__________________________________________________________________________________________________
Last_Dense_1 (Dense)            (None, 72)           83016       Last_flatten[0][0]               
__________________________________________________________________________________________________
reshape_1 (Reshape)             (None, 72, 1)        0           Last_Dense_0[0][0]               
__________________________________________________________________________________________________
reshape_2 (Reshape)             (None, 72, 1)        0           Last_Dense_1[0][0]               
__________________________________________________________________________________________________
Last_Concat (Concatenate)       (None, 72, 2)        0           reshape_1[0][0]                  
                                                                 reshape_2[0][0]                  
==================================================================================================
Total params: 166,032
Trainable params: 166,032
Non-trainable params: 0
__________________________________________________________________________________________________
…
