…
values : (0.00010348010255256668, 1.4999999621068127e-05) 
  
rl : type : Zero_One 
fitted : True 
values : (2.099999983329326e-05, 4.999999873689376e-06) 
  
t : type : Normalizer 
fitted : True 
values : (243.3359832763672, 25.461942672729492) 
  
ts : type : Normalizer 
fitted : True 
values : (283.5641174316406, 6.850484848022461) 
  

type : Var Supression 
 values : ['ts'] 

_________________________________________________________________
Layer (type)                 Output Shape              Param #   
=================================================================
input_1 (InputLayer)         (None, 72, 10)            0         
_________________________________________________________________
up_sampling1d_1 (UpSampling1 (None, 360, 10)           0         
_________________________________________________________________
average_pooling1d_1 (Average (None, 72, 10)            0         
=================================================================
Total params: 0
Trainable params: 0
Non-trainable params: 0
_________________________________________________________________
__________________________________________________________________________________________________
Layer (type)                    Output Shape         Param #     Connected to                     
==================================================================================================
Origin_Input (InputLayer)       (None, 72, 10)       0                                            
__________________________________________________________________________________________________
Conv_0 (Conv1D)                 (None, 72, 32)       9600        Origin_Input[0][0]               
__________________________________________________________________________________________________
elu_0 (ELU)                     (None, 72, 32)       0           Conv_0[0][0]                     
__________________________________________________________________________________________________
spatial_dropout1d_1 (SpatialDro (None, 72, 32)       0           elu_0[0][0]                      
__________________________________________________________________________________________________
Conv_1 (Conv1D)                 (None, 72, 64)       40960       spatial_dropout1d_1[0][0]        
__________________________________________________________________________________________________
elu_1 (ELU)                     (None, 72, 64)       0           Conv_1[0][0]                     
__________________________________________________________________________________________________
spatial_dropout1d_2 (SpatialDro (None, 72, 64)       0           elu_1[0][0]                      
__________________________________________________________________________________________________
Conv_2 (Conv1D)                 (None, 72, 64)       40960       spatial_dropout1d_2[0][0]        
__________________________________________________________________________________________________
elu_2 (ELU)                     (None, 72, 64)       0           Conv_2[0][0]                     
__________________________________________________________________________________________________
spatial_dropout1d_3 (SpatialDro (None, 72, 64)       0           elu_2[0][0]                      
__________________________________________________________________________________________________
Conv_3 (Conv1D)                 (None, 72, 128)      81920       spatial_dropout1d_3[0][0]        
__________________________________________________________________________________________________
elu_3 (ELU)                     (None, 72, 128)      0           Conv_3[0][0]                     
__________________________________________________________________________________________________
spatial_dropout1d_4 (SpatialDro (None, 72, 128)      0           elu_3[0][0]                      
__________________________________________________________________________________________________
Conv_4 (Conv1D)                 (None, 72, 128)      81920       spatial_dropout1d_4[0][0]        
__________________________________________________________________________________________________
elu_4 (ELU)                     (None, 72, 128)      0           Conv_4[0][0]                     
__________________________________________________________________________________________________
spatial_dropout1d_5 (SpatialDro (None, 72, 128)      0           elu_4[0][0]                      
__________________________________________________________________________________________________
AVG_100 (AveragePooling1D)      (None, 36, 128)      0           spatial_dropout1d_5[0][0]        
__________________________________________________________________________________________________
Conv_100 (Conv1D)               (None, 36, 30)       7710        AVG_100[0][0]                    
__________________________________________________________________________________________________
elu_100 (ELU)                   (None, 36, 30)       0           Conv_100[0][0]                   
__________________________________________________________________________________________________
spatial_dropout1d_6 (SpatialDro (None, 36, 30)       0           elu_100[0][0]                    
__________________________________________________________________________________________________
Conv_110 (Conv1D)               (None, 36, 30)       4530        spatial_dropout1d_6[0][0]        
__________________________________________________________________________________________________
elu_110 (ELU)                   (None, 36, 30)       0           Conv_110[0][0]                   
__________________________________________________________________________________________________
spatial_dropout1d_7 (SpatialDro (None, 36, 30)       0           elu_110[0][0]                    
__________________________________________________________________________________________________
AVG_101 (AveragePooling1D)      (None, 18, 30)       0           spatial_dropout1d_7[0][0]        
__________________________________________________________________________________________________
Conv_101 (Conv1D)               (None, 18, 50)       3050        AVG_101[0][0]                    
__________________________________________________________________________________________________
elu_101 (ELU)                   (None, 18, 50)       0           Conv_101[0][0]                   
__________________________________________________________________________________________________
spatial_dropout1d_8 (SpatialDro (None, 18, 50)       0           elu_101[0][0]                    
__________________________________________________________________________________________________
Conv_111 (Conv1D)               (None, 18, 50)       12550       spatial_dropout1d_8[0][0]        
__________________________________________________________________________________________________
elu_111 (ELU)                   (None, 18, 50)       0           Conv_111[0][0]                   
__________________________________________________________________________________________________
spatial_dropout1d_9 (SpatialDro (None, 18, 50)       0           elu_111[0][0]                    
__________________________________________________________________________________________________
AVG_102 (AveragePooling1D)      (None, 9, 50)        0           spatial_dropout1d_9[0][0]        
__________________________________________________________________________________________________
Conv_102 (Conv1D)               (None, 9, 128)       12928       AVG_102[0][0]                    
__________________________________________________________________________________________________
elu_102 (ELU)                   (None, 9, 128)       0           Conv_102[0][0]                   
__________________________________________________________________________________________________
spatial_dropout1d_10 (SpatialDr (None, 9, 128)       0           elu_102[0][0]                    
__________________________________________________________________________________________________
Conv_112 (Conv1D)               (None, 9, 128)       65664       spatial_dropout1d_10[0][0]       
__________________________________________________________________________________________________
elu_112 (ELU)                   (None, 9, 128)       0           Conv_112[0][0]                   
__________________________________________________________________________________________________
spatial_dropout1d_11 (SpatialDr (None, 9, 128)       0           elu_112[0][0]                    
__________________________________________________________________________________________________
Dense_0 (Conv1D)                (None, 9, 50)        57650       spatial_dropout1d_11[0][0]       
__________________________________________________________________________________________________
tanh_d_0 (Activation)           (None, 9, 50)        0           Dense_0[0][0]                    
__________________________________________________________________________________________________
spatial_dropout1d_12 (SpatialDr (None, 9, 50)        0           tanh_d_0[0][0]                   
__________________________________________________________________________________________________
Dense_1 (Conv1D)                (None, 9, 20)        9020        spatial_dropout1d_12[0][0]       
__________________________________________________________________________________________________
tanh_d_1 (Activation)           (None, 9, 20)        0           Dense_1[0][0]                    
__________________________________________________________________________________________________
spatial_dropout1d_13 (SpatialDr (None, 9, 20)        0           tanh_d_1[0][0]                   
__________________________________________________________________________________________________
Concat_300 (Concatenate)        (None, 9, 148)       0           spatial_dropout1d_13[0][0]       
                                                                 spatial_dropout1d_11[0][0]       
__________________________________________________________________________________________________
Ups_200 (UpSampling1D)          (None, 18, 148)      0           Concat_300[0][0]                 
__________________________________________________________________________________________________
Conv_200 (Conv1D)               (None, 18, 64)       28480       Ups_200[0][0]                    
__________________________________________________________________________________________________
elu_200 (ELU)                   (None, 18, 64)       0           Conv_200[0][0]                   
__________________________________________________________________________________________________
spatial_dropout1d_14 (SpatialDr (None, 18, 64)       0           elu_200[0][0]                    
__________________________________________________________________________________________________
Conv_210 (Conv1D)               (None, 18, 64)       16448       spatial_dropout1d_14[0][0]       
__________________________________________________________________________________________________
elu_210 (ELU)                   (None, 18, 64)       0           Conv_210[0][0]                   
__________________________________________________________________________________________________
spatial_dropout1d_15 (SpatialDr (None, 18, 64)       0           elu_210[0][0]                    
__________________________________________________________________________________________________
Concat_301 (Concatenate)        (None, 18, 114)      0           spatial_dropout1d_15[0][0]       
                                                                 spatial_dropout1d_9[0][0]        
__________________________________________________________________________________________________
Ups_201 (UpSampling1D)          (None, 36, 114)      0           Concat_301[0][0]                 
__________________________________________________________________________________________________
Conv_201 (Conv1D)               (None, 36, 128)      43904       Ups_201[0][0]                    
__________________________________________________________________________________________________
elu_201 (ELU)                   (None, 36, 128)      0           Conv_201[0][0]                   
__________________________________________________________________________________________________
spatial_dropout1d_16 (SpatialDr (None, 36, 128)      0           elu_201[0][0]                    
__________________________________________________________________________________________________
Conv_211 (Conv1D)               (None, 36, 128)      82048       spatial_dropout1d_16[0][0]       
__________________________________________________________________________________________________
elu_211 (ELU)                   (None, 36, 128)      0           Conv_211[0][0]                   
__________________________________________________________________________________________________
spatial_dropout1d_17 (SpatialDr (None, 36, 128)      0           elu_211[0][0]                    
__________________________________________________________________________________________________
Concat_302 (Concatenate)        (None, 36, 158)      0           spatial_dropout1d_17[0][0]       
                                                                 spatial_dropout1d_7[0][0]        
__________________________________________________________________________________________________
Ups_202 (UpSampling1D)          (None, 72, 158)      0           Concat_302[0][0]                 
__________________________________________________________________________________________________
Conv_202 (Conv1D)               (None, 72, 128)      60800       Ups_202[0][0]                    
__________________________________________________________________________________________________
elu_202 (ELU)                   (None, 72, 128)      0           Conv_202[0][0]                   
__________________________________________________________________________________________________
spatial_dropout1d_18 (SpatialDr (None, 72, 128)      0           elu_202[0][0]                    
__________________________________________________________________________________________________
Conv_212 (Conv1D)               (None, 72, 256)      196864      spatial_dropout1d_18[0][0]       
__________________________________________________________________________________________________
elu_212 (ELU)                   (None, 72, 256)      0           Conv_212[0][0]                   
__________________________________________________________________________________________________
spatial_dropout1d_19 (SpatialDr (None, 72, 256)      0           elu_212[0][0]                    
__________________________________________________________________________________________________
Conv3_300 (Conv1D)              (None, 72, 512)      1310720     spatial_dropout1d_19[0][0]       
__________________________________________________________________________________________________
elu_300 (ELU)                   (None, 72, 512)      0           Conv3_300[0][0]                  
__________________________________________________________________________________________________
spatial_dropout1d_20 (SpatialDr (None, 72, 512)      0           elu_300[0][0]                    
__________________________________________________________________________________________________
Flat_0 (Flatten)                (None, 180)          0           spatial_dropout1d_13[0][0]       
__________________________________________________________________________________________________
Conv3_301 (Conv1D)              (None, 72, 128)      327680      spatial_dropout1d_20[0][0]       
__________________________________________________________________________________________________
Dense_200 (Dense)               (None, 50)           9050        Flat_0[0][0]                     
__________________________________________________________________________________________________
elu_301 (ELU)                   (None, 72, 128)      0           Conv3_301[0][0]                  
__________________________________________________________________________________________________
elu_d2_0 (ELU)                  (None, 50)           0           Dense_200[0][0]                  
__________________________________________________________________________________________________
spatial_dropout1d_21 (SpatialDr (None, 72, 128)      0           elu_301[0][0]                    
__________________________________________________________________________________________________
dropout_1 (Dropout)             (None, 50)           0           elu_d2_0[0][0]                   
__________________________________________________________________________________________________
Conv3_302 (Conv1D)              (None, 72, 2)        768         spatial_dropout1d_21[0][0]       
__________________________________________________________________________________________________
Dense_201 (Dense)               (None, 1)            51          dropout_1[0][0]                  
__________________________________________________________________________________________________
linear_302 (Activation)         (None, 72, 2)        0           Conv3_302[0][0]                  
__________________________________________________________________________________________________
linear_d2_1 (Activation)        (None, 1)            0           Dense_201[0][0]                  
__________________________________________________________________________________________________
spatial_dropout1d_22 (SpatialDr (None, 72, 2)        0           linear_302[0][0]                 
__________________________________________________________________________________________________
dropout_2 (Dropout)             (None, 1)            0           linear_d2_1[0][0]                
__________________________________________________________________________________________________
lambda_1 (Lambda)               (None, 72)           0           spatial_dropout1d_22[0][0]       
__________________________________________________________________________________________________
Concat (Concatenate)            (None, 73)           0           dropout_2[0][0]                  
                                                                 lambda_1[0][0]                   
==================================================================================================
Total params: 2,505,275
Trainable params: 2,505,275
Non-trainable params: 0
__________________________________________________________________________________________________
…
