…
fitted : True 
values : (243.3359832763672, 25.461942672729492) 
  

o3 : type : Level_Normalizer 
fitted : True 
values : [ … pl : type : Level_Normalizer 
fitted : True 
values : [… q : type : Level_Normalizer 
fitted : True 
values : [… type : Var Supression 
 values : ['ts'] 

__________________________________________________________________________________________________
Layer (type)                    Output Shape         Param #     Connected to                     
==================================================================================================
Input_0 (InputLayer)            (None, 72, 10)       0                                            
__________________________________________________________________________________________________
Conv_u_1 (Conv1D)               (None, 72, 32)       9632        Input_0[0][0]                    
__________________________________________________________________________________________________
elu_u_1 (ELU)                   (None, 72, 32)       0           Conv_u_1[0][0]                   
__________________________________________________________________________________________________
Conv_u_2 (Conv1D)               (None, 72, 64)       61504       elu_u_1[0][0]                    
__________________________________________________________________________________________________
elu_u_2 (ELU)                   (None, 72, 64)       0           Conv_u_2[0][0]                   
__________________________________________________________________________________________________
Conv_u_3 (Conv1D)               (None, 72, 64)       122944      elu_u_2[0][0]                    
__________________________________________________________________________________________________
Flip_0 (Lambda)                 (None, 72, 10)       0           Input_0[0][0]                    
__________________________________________________________________________________________________
elu_u_3 (ELU)                   (None, 72, 64)       0           Conv_u_3[0][0]                   
__________________________________________________________________________________________________
Conv_d_1 (Conv1D)               (None, 72, 32)       1632        Flip_0[0][0]                     
__________________________________________________________________________________________________
Conv_u_4 (Conv1D)               (None, 72, 128)      82048       elu_u_3[0][0]                    
__________________________________________________________________________________________________
elu_d_1 (ELU)                   (None, 72, 32)       0           Conv_d_1[0][0]                   
__________________________________________________________________________________________________
elu_u_4 (ELU)                   (None, 72, 128)      0           Conv_u_4[0][0]                   
__________________________________________________________________________________________________
Conv_d_2 (Conv1D)               (None, 72, 64)       6208        elu_d_1[0][0]                    
__________________________________________________________________________________________________
Conv_u_5 (Conv1D)               (None, 72, 128)      82048       elu_u_4[0][0]                    
__________________________________________________________________________________________________
elu_d_2 (ELU)                   (None, 72, 64)       0           Conv_d_2[0][0]                   
__________________________________________________________________________________________________
elu_u_5 (ELU)                   (None, 72, 128)      0           Conv_u_5[0][0]                   
__________________________________________________________________________________________________
Conv_d_3 (Conv1D)               (None, 72, 128)      24704       elu_d_2[0][0]                    
__________________________________________________________________________________________________
Conv_u_6 (Conv1D)               (None, 72, 150)      57750       elu_u_5[0][0]                    
__________________________________________________________________________________________________
elu_d_3 (ELU)                   (None, 72, 128)      0           Conv_d_3[0][0]                   
__________________________________________________________________________________________________
elu_u_6 (ELU)                   (None, 72, 150)      0           Conv_u_6[0][0]                   
__________________________________________________________________________________________________
Flip_1 (Lambda)                 (None, 72, 128)      0           elu_d_3[0][0]                    
__________________________________________________________________________________________________
Concat_0 (Concatenate)          (None, 72, 278)      0           elu_u_6[0][0]                    
                                                                 Flip_1[0][0]                     
__________________________________________________________________________________________________
Conv_c_0 (Conv1D)               (None, 72, 256)      356096      Concat_0[0][0]                   
__________________________________________________________________________________________________
elu_c_1 (ELU)                   (None, 72, 256)      0           Conv_c_0[0][0]                   
__________________________________________________________________________________________________
Conv_c_1 (Conv1D)               (None, 72, 256)      327936      elu_c_1[0][0]                    
__________________________________________________________________________________________________
elu_c_2 (ELU)                   (None, 72, 256)      0           Conv_c_1[0][0]                   
__________________________________________________________________________________________________
Conv_c_2 (Conv1D)               (None, 72, 64)       49216       elu_c_2[0][0]                    
__________________________________________________________________________________________________
elu_c_3 (ELU)                   (None, 72, 64)       0           Conv_c_2[0][0]                   
__________________________________________________________________________________________________
Conv_c_3 (Conv1D)               (None, 72, 2)        386         elu_c_3[0][0]                    
__________________________________________________________________________________________________
linear_c_4 (Activation)         (None, 72, 2)        0           Conv_c_3[0][0]                   
==================================================================================================
Total params: 1,182,104
Trainable params: 1,182,104
Non-trainable params: 0
__________________________________________________________________________________________________


Bidir
list_of_filters =  [[32, 64, 64, 128, 128, 150], [32, 64, 128], [256, 256, 64, 2]]
…
