Seed 0
__________________________________________________________________________________________________
Layer (type)                    Output Shape         Param #     Connected to                     
==================================================================================================
InputLev_0 (InputLayer)         (64, 72, 8)          0                                            
__________________________________________________________________________________________________
Up_0 (UpSampling1D)             (64, 360, 8)         0           InputLev_0[0][0]                 
__________________________________________________________________________________________________
AVG_1 (AveragePooling1D)        (64, 72, 8)          0           Up_0[0][0]                       
__________________________________________________________________________________________________
Flat_0 (Flatten)                (64, 576)            0           AVG_1[0][0]                      
__________________________________________________________________________________________________
InputU_1 (InputLayer)           (64, 3)              0                                            
__________________________________________________________________________________________________
Concat_0 (Concatenate)          (64, 579)            0           Flat_0[0][0]                     
                                                                 InputU_1[0][0]                   
__________________________________________________________________________________________________
Dense_0 (Dense)                 (64, 300)            174000      Concat_0[0][0]                   
__________________________________________________________________________________________________
Act_0 (Activation)              (64, 300)            0           Dense_0[0][0]                    
__________________________________________________________________________________________________
Dense_1 (Dense)                 (64, 150)            45150       Act_0[0][0]                      
__________________________________________________________________________________________________
Act_1 (Activation)              (64, 150)            0           Dense_1[0][0]                    
__________________________________________________________________________________________________
Dense_2 (Dense)                 (64, 64)             9664        Act_1[0][0]                      
__________________________________________________________________________________________________
Act_2 (Activation)              (64, 64)             0           Dense_2[0][0]                    
__________________________________________________________________________________________________
Dense_3 (Dense)                 (64, 25)             1625        Act_2[0][0]                      
__________________________________________________________________________________________________
Act_3 (Activation)              (64, 25)             0           Dense_3[0][0]                    
__________________________________________________________________________________________________
Dense_4 (Dense)                 (64, 64)             1664        Act_3[0][0]                      
__________________________________________________________________________________________________
Act_4 (Activation)              (64, 64)             0           Dense_4[0][0]                    
__________________________________________________________________________________________________
Dense_5 (Dense)                 (64, 150)            9750        Act_4[0][0]                      
__________________________________________________________________________________________________
Act_5 (Activation)              (64, 150)            0           Dense_5[0][0]                    
__________________________________________________________________________________________________
Dense_6 (Dense)                 (64, 216)            32400       Act_5[0][0]                      
==================================================================================================
Total params: 274,253
Trainable params: 274,253
Non-trainable params: 0
__________________________________________________________________________________________________
val_loss : [… val_flxd_loss_fc : [… val_flxu_loss_fc : [… val_dfdts_loss_fc : [… loss : [… flxd_loss_fc : [… flxu_loss_fc : [… dfdts_loss_fc : [… flxu_loss
…
