…
rl : type : Zero_One 
fitted : True 
values : (2.1e-05, 5e-06) 
  
t : type : Normalizer 
fitted : True 
values : (245.35608, 29.160812) 
  
ts : type : Normalizer 
fitted : True 
values : (289.15628, 14.642823) 
  

o3 : type : Level_Normalizer 
fitted : True 
values : [ … pl : type : Level_Normalizer 
fitted : True 
values : [… q : type : Level_Normalizer 
fitted : True 
values : [… _________________________________________________________________
Layer (type)                 Output Shape              Param #   
=================================================================
input_12 (InputLayer)        (None, 72, 11)            0         
_________________________________________________________________
up_sampling1d_12 (UpSampling (None, 360, 11)           0         
_________________________________________________________________
average_pooling1d_12 (Averag (None, 72, 11)            0         
=================================================================
Total params: 0
Trainable params: 0
Non-trainable params: 0
_________________________________________________________________
__________________________________________________________________________________________________
Layer (type)                    Output Shape         Param #     Connected to                     
==================================================================================================
Origin_Input (InputLayer)       (None, 72, 11)       0                                            
__________________________________________________________________________________________________
Conv_0 (Conv1D)                 (None, 72, 32)       3520        Origin_Input[0][0]               
__________________________________________________________________________________________________
elu_0 (ELU)                     (None, 72, 32)       0           Conv_0[0][0]                     
__________________________________________________________________________________________________
Conv_1 (Conv1D)                 (None, 72, 64)       20480       elu_0[0][0]                      
__________________________________________________________________________________________________
elu_1 (ELU)                     (None, 72, 64)       0           Conv_1[0][0]                     
__________________________________________________________________________________________________
Conv_2 (Conv1D)                 (None, 72, 64)       20480       elu_1[0][0]                      
__________________________________________________________________________________________________
elu_2 (ELU)                     (None, 72, 64)       0           Conv_2[0][0]                     
__________________________________________________________________________________________________
Conv_3 (Conv1D)                 (None, 72, 128)      40960       elu_2[0][0]                      
__________________________________________________________________________________________________
elu_3 (ELU)                     (None, 72, 128)      0           Conv_3[0][0]                     
__________________________________________________________________________________________________
AVG_100 (AveragePooling1D)      (None, 36, 128)      0           elu_3[0][0]                      
__________________________________________________________________________________________________
Conv_100 (Conv1D)               (None, 36, 30)       7710        AVG_100[0][0]                    
__________________________________________________________________________________________________
elu_100 (ELU)                   (None, 36, 30)       0           Conv_100[0][0]                   
__________________________________________________________________________________________________
Conv_110 (Conv1D)               (None, 36, 30)       4530        elu_100[0][0]                    
__________________________________________________________________________________________________
elu_110 (ELU)                   (None, 36, 30)       0           Conv_110[0][0]                   
__________________________________________________________________________________________________
AVG_101 (AveragePooling1D)      (None, 18, 30)       0           elu_110[0][0]                    
__________________________________________________________________________________________________
Conv_101 (Conv1D)               (None, 18, 50)       3050        AVG_101[0][0]                    
__________________________________________________________________________________________________
elu_101 (ELU)                   (None, 18, 50)       0           Conv_101[0][0]                   
__________________________________________________________________________________________________
Conv_111 (Conv1D)               (None, 18, 50)       12550       elu_101[0][0]                    
__________________________________________________________________________________________________
elu_111 (ELU)                   (None, 18, 50)       0           Conv_111[0][0]                   
__________________________________________________________________________________________________
AVG_102 (AveragePooling1D)      (None, 9, 50)        0           elu_111[0][0]                    
__________________________________________________________________________________________________
Conv_102 (Conv1D)               (None, 9, 128)       12928       AVG_102[0][0]                    
__________________________________________________________________________________________________
elu_102 (ELU)                   (None, 9, 128)       0           Conv_102[0][0]                   
__________________________________________________________________________________________________
Conv_112 (Conv1D)               (None, 9, 128)       65664       elu_102[0][0]                    
__________________________________________________________________________________________________
elu_112 (ELU)                   (None, 9, 128)       0           Conv_112[0][0]                   
__________________________________________________________________________________________________
Flatten (Flatten)               (None, 1152)         0           elu_112[0][0]                    
__________________________________________________________________________________________________
Dense_0 (Dense)                 (None, 360)          415080      Flatten[0][0]                    
__________________________________________________________________________________________________
sigmoid_d_0 (Activation)        (None, 360)          0           Dense_0[0][0]                    
__________________________________________________________________________________________________
Dense_1 (Dense)                 (None, 90)           32490       sigmoid_d_0[0][0]                
__________________________________________________________________________________________________
sigmoid_d_1 (Activation)        (None, 90)           0           Dense_1[0][0]                    
__________________________________________________________________________________________________
Reshape (Reshape)               (None, 9, 10)        0           sigmoid_d_1[0][0]                
__________________________________________________________________________________________________
Concat_300 (Concatenate)        (None, 9, 138)       0           Reshape[0][0]                    
                                                                 elu_112[0][0]                    
__________________________________________________________________________________________________
Ups_200 (UpSampling1D)          (None, 18, 138)      0           Concat_300[0][0]                 
__________________________________________________________________________________________________
Conv_200 (Conv1D)               (None, 18, 64)       26560       Ups_200[0][0]                    
__________________________________________________________________________________________________
elu_200 (ELU)                   (None, 18, 64)       0           Conv_200[0][0]                   
__________________________________________________________________________________________________
Conv_210 (Conv1D)               (None, 18, 64)       16448       elu_200[0][0]                    
__________________________________________________________________________________________________
elu_210 (ELU)                   (None, 18, 64)       0           Conv_210[0][0]                   
__________________________________________________________________________________________________
Concat_301 (Concatenate)        (None, 18, 114)      0           elu_210[0][0]                    
                                                                 elu_111[0][0]                    
__________________________________________________________________________________________________
Ups_201 (UpSampling1D)          (None, 36, 114)      0           Concat_301[0][0]                 
__________________________________________________________________________________________________
Conv_201 (Conv1D)               (None, 36, 128)      43904       Ups_201[0][0]                    
__________________________________________________________________________________________________
elu_201 (ELU)                   (None, 36, 128)      0           Conv_201[0][0]                   
__________________________________________________________________________________________________
Conv_211 (Conv1D)               (None, 36, 128)      82048       elu_201[0][0]                    
__________________________________________________________________________________________________
elu_211 (ELU)                   (None, 36, 128)      0           Conv_211[0][0]                   
__________________________________________________________________________________________________
Concat_302 (Concatenate)        (None, 36, 158)      0           elu_211[0][0]                    
                                                                 elu_110[0][0]                    
__________________________________________________________________________________________________
Ups_202 (UpSampling1D)          (None, 72, 158)      0           Concat_302[0][0]                 
__________________________________________________________________________________________________
Conv_202 (Conv1D)               (None, 72, 128)      60800       Ups_202[0][0]                    
__________________________________________________________________________________________________
elu_202 (ELU)                   (None, 72, 128)      0           Conv_202[0][0]                   
__________________________________________________________________________________________________
Conv_212 (Conv1D)               (None, 72, 128)      98432       elu_202[0][0]                    
__________________________________________________________________________________________________
elu_212 (ELU)                   (None, 72, 128)      0           Conv_212[0][0]                   
__________________________________________________________________________________________________
Conv3_300 (Conv1D)              (None, 72, 150)      192000      elu_212[0][0]                    
__________________________________________________________________________________________________
elu_300 (ELU)                   (None, 72, 150)      0           Conv3_300[0][0]                  
__________________________________________________________________________________________________
Conv3_301 (Conv1D)              (None, 72, 32)       24000       elu_300[0][0]                    
__________________________________________________________________________________________________
elu_301 (ELU)                   (None, 72, 32)       0           Conv3_301[0][0]                  
__________________________________________________________________________________________________
Conv3_302 (Conv1D)              (None, 72, 10)       1600        elu_301[0][0]                    
__________________________________________________________________________________________________
linear_302 (Activation)         (None, 72, 10)       0           Conv3_302[0][0]                  
==================================================================================================
Total params: 1,185,234
Trainable params: 1,185,234
Non-trainable params: 0
__________________________________________________________________________________________________


Unet
list_of_filters_unet =  [[32, 64, 64, 128], [30, 30, 50, 50, 128, 128], [40, 10], [64, 64, 128, 128, 128, 128], [150, 32, 10]]
…
