…
fitted : True 
values : (283.5641174316406, 6.850484848022461) 
  

type : {} 
fitted : {} 
values : {} 
  
o3 : type : Level_Normalizer 
fitted : False 
values : [… pl : type : Level_Normalizer 
fitted : False 
values : [… q : type : Level_Normalizer 
fitted : False 
values : [… t : type : Level_Normalizer 
fitted : False 
values : [… type : {} 
fitted : {} 
values : {} 
  
_________________________________________________________________
Layer (type)                 Output Shape              Param #   
=================================================================
input_1 (InputLayer)         (None, 72, 9)             0         
_________________________________________________________________
up_sampling1d_1 (UpSampling1 (None, 360, 9)            0         
_________________________________________________________________
average_pooling1d_1 (Average (None, 72, 9)             0         
=================================================================
Total params: 0
Trainable params: 0
Non-trainable params: 0
_________________________________________________________________
__________________________________________________________________________________________________
Layer (type)                    Output Shape         Param #     Connected to                     
==================================================================================================
Input_0 (InputLayer)            (None, 72, 9)        0                                            
__________________________________________________________________________________________________
Flip_0 (Lambda)                 (None, 72, 9)        0           Input_0[0][0]                    
__________________________________________________________________________________________________
Conv_d_1 (Conv1D)               (None, 72, 32)       2912        Flip_0[0][0]                     
__________________________________________________________________________________________________
Conv_u_1 (Conv1D)               (None, 72, 64)       6976        Input_0[0][0]                    
__________________________________________________________________________________________________
elu_d_1 (ELU)                   (None, 72, 32)       0           Conv_d_1[0][0]                   
__________________________________________________________________________________________________
elu_u_1 (ELU)                   (None, 72, 64)       0           Conv_u_1[0][0]                   
__________________________________________________________________________________________________
Conv_d_2 (Conv1D)               (None, 72, 20)       3220        elu_d_1[0][0]                    
__________________________________________________________________________________________________
Conv_u_2 (Conv1D)               (None, 72, 100)      32100       elu_u_1[0][0]                    
__________________________________________________________________________________________________
elu_d_2 (ELU)                   (None, 72, 20)       0           Conv_d_2[0][0]                   
__________________________________________________________________________________________________
elu_u_2 (ELU)                   (None, 72, 100)      0           Conv_u_2[0][0]                   
__________________________________________________________________________________________________
Conv_d_3 (Conv1D)               (None, 72, 10)       610         elu_d_2[0][0]                    
__________________________________________________________________________________________________
Conv_u_3 (Conv1D)               (None, 72, 32)       16032       elu_u_2[0][0]                    
__________________________________________________________________________________________________
elu_d_3 (ELU)                   (None, 72, 10)       0           Conv_d_3[0][0]                   
__________________________________________________________________________________________________
elu_u_3 (ELU)                   (None, 72, 32)       0           Conv_u_3[0][0]                   
__________________________________________________________________________________________________
Flip_1 (Lambda)                 (None, 72, 10)       0           elu_d_3[0][0]                    
__________________________________________________________________________________________________
Concat_0 (Concatenate)          (None, 72, 42)       0           elu_u_3[0][0]                    
                                                                 Flip_1[0][0]                     
__________________________________________________________________________________________________
Conv_c_0 (Conv1D)               (None, 72, 100)      21100       Concat_0[0][0]                   
__________________________________________________________________________________________________
relu_c_1 (Activation)           (None, 72, 100)      0           Conv_c_0[0][0]                   
==================================================================================================
Total params: 82,950
Trainable params: 82,950
Non-trainable params: 0
__________________________________________________________________________________________________
__________________________________________________________________________________________________
Layer (type)                    Output Shape         Param #     Connected to                     
==================================================================================================
Origin_Input (InputLayer)       (None, 72, 100)      0                                            
__________________________________________________________________________________________________
AVG_1 (AveragePooling1D)        (None, 36, 100)      0           Origin_Input[0][0]               
__________________________________________________________________________________________________
Conv1_1 (Conv1D)                (None, 36, 50)       50050       AVG_1[0][0]                      
__________________________________________________________________________________________________
elu_10 (ELU)                    (None, 36, 50)       0           Conv1_1[0][0]                    
__________________________________________________________________________________________________
AVG_2 (AveragePooling1D)        (None, 18, 50)       0           elu_10[0][0]                     
__________________________________________________________________________________________________
Conv1_2 (Conv1D)                (None, 18, 25)       6275        AVG_2[0][0]                      
__________________________________________________________________________________________________
elu_11 (ELU)                    (None, 18, 25)       0           Conv1_2[0][0]                    
__________________________________________________________________________________________________
AVG_3 (AveragePooling1D)        (None, 9, 25)        0           elu_11[0][0]                     
__________________________________________________________________________________________________
Conv1_3 (Conv1D)                (None, 9, 100)       7600        AVG_3[0][0]                      
__________________________________________________________________________________________________
elu_12 (ELU)                    (None, 9, 100)       0           Conv1_3[0][0]                    
__________________________________________________________________________________________________
flatten_1 (Flatten)             (None, 900)          0           elu_12[0][0]                     
__________________________________________________________________________________________________
dense_1 (Dense)                 (None, 2430)         2189430     flatten_1[0][0]                  
__________________________________________________________________________________________________
tanh_c (Activation)             (None, 2430)         0           dense_1[0][0]                    
__________________________________________________________________________________________________
Reshape (Reshape)               (None, 9, 270)       0           tanh_c[0][0]                     
__________________________________________________________________________________________________
Concat_1 (Concatenate)          (None, 9, 370)       0           Reshape[0][0]                    
                                                                 elu_12[0][0]                     
__________________________________________________________________________________________________
Ups_1 (UpSampling1D)            (None, 18, 370)      0           Concat_1[0][0]                   
__________________________________________________________________________________________________
Conv2_1 (Conv1D)                (None, 18, 50)       111050      Ups_1[0][0]                      
__________________________________________________________________________________________________
elu_20 (ELU)                    (None, 18, 50)       0           Conv2_1[0][0]                    
__________________________________________________________________________________________________
Concat_2 (Concatenate)          (None, 18, 75)       0           elu_20[0][0]                     
                                                                 elu_11[0][0]                     
__________________________________________________________________________________________________
Ups_2 (UpSampling1D)            (None, 36, 75)       0           Concat_2[0][0]                   
__________________________________________________________________________________________________
Conv2_2 (Conv1D)                (None, 36, 75)       56325       Ups_2[0][0]                      
__________________________________________________________________________________________________
elu_21 (ELU)                    (None, 36, 75)       0           Conv2_2[0][0]                    
__________________________________________________________________________________________________
Concat_3 (Concatenate)          (None, 36, 125)      0           elu_21[0][0]                     
                                                                 elu_10[0][0]                     
__________________________________________________________________________________________________
Ups_3 (UpSampling1D)            (None, 72, 125)      0           Concat_3[0][0]                   
__________________________________________________________________________________________________
Conv2_3 (Conv1D)                (None, 72, 25)       62525       Ups_3[0][0]                      
__________________________________________________________________________________________________
elu_22 (ELU)                    (None, 72, 25)       0           Conv2_3[0][0]                    
__________________________________________________________________________________________________
Conv3_30 (Conv1D)               (None, 72, 50)       6250        elu_22[0][0]                     
__________________________________________________________________________________________________
elu_30 (ELU)                    (None, 72, 50)       0           Conv3_30[0][0]                   
__________________________________________________________________________________________________
Conv3_31 (Conv1D)               (None, 72, 3)        300         elu_30[0][0]                     
__________________________________________________________________________________________________
linear_31 (Activation)          (None, 72, 3)        0           Conv3_31[0][0]                   
==================================================================================================
Total params: 2,489,805
Trainable params: 2,489,805
Non-trainable params: 0
__________________________________________________________________________________________________


Bdc
list_of_filters_bdc =  [[64, 100, 32], [32, 20, 10], [100]]
list_of_kernel_bdc =  [[12, 5, 5], [10, 5, 3], [5, 3]]
…
