…
ts : type : Normalizer 
fitted : True 
values : (283.5641174316406, 6.850484848022461) 
  

type : Prodkernel 
variable : [('pl', 'ts')] 
params :   
  
o3 : type : Level_Normalizer 
fitted : True 
values : [ … pl : type : Level_Normalizer 
fitted : True 
values : [… q : type : Level_Normalizer 
fitted : True 
values : [… type : Var Supression 
 values : ['pl', 'rl', 'ri', 'ts'] 

_________________________________________________________________
Layer (type)                 Output Shape              Param #   
=================================================================
input_11 (InputLayer)        (None, 72, 8)             0         
_________________________________________________________________
up_sampling1d_6 (UpSampling1 (None, 360, 8)            0         
_________________________________________________________________
average_pooling1d_6 (Average (None, 72, 8)             0         
=================================================================
Total params: 0
Trainable params: 0
Non-trainable params: 0
_________________________________________________________________
_________________________________________________________________
Layer (type)                 Output Shape              Param #   
=================================================================
Origin_Input (InputLayer)    (None, 72, 8)             0         
_________________________________________________________________
Conv_0 (Conv1D)              (None, 72, 10)            800       
_________________________________________________________________
relu_0 (Activation)          (None, 72, 10)            0         
_________________________________________________________________
Conv_1 (Conv1D)              (None, 72, 25)            1250      
_________________________________________________________________
relu_1 (Activation)          (None, 72, 25)            0         
_________________________________________________________________
AVG_100 (MaxPooling1D)       (None, 36, 25)            0         
_________________________________________________________________
Conv_100 (Conv1D)            (None, 36, 30)            1530      
_________________________________________________________________
relu_100 (Activation)        (None, 36, 30)            0         
_________________________________________________________________
Conv_110 (Conv1D)            (None, 36, 30)            4530      
_________________________________________________________________
relu_110 (Activation)        (None, 36, 30)            0         
_________________________________________________________________
AVG_101 (MaxPooling1D)       (None, 18, 30)            0         
_________________________________________________________________
Conv_101 (Conv1D)            (None, 18, 50)            3050      
_________________________________________________________________
relu_101 (Activation)        (None, 18, 50)            0         
_________________________________________________________________
Conv_111 (Conv1D)            (None, 18, 50)            12550     
_________________________________________________________________
relu_111 (Activation)        (None, 18, 50)            0         
_________________________________________________________________
AVG_102 (MaxPooling1D)       (None, 9, 50)             0         
_________________________________________________________________
Conv_102 (Conv1D)            (None, 9, 128)            12928     
_________________________________________________________________
relu_102 (Activation)        (None, 9, 128)            0         
_________________________________________________________________
Conv_112 (Conv1D)            (None, 9, 128)            65664     
_________________________________________________________________
relu_112 (Activation)        (None, 9, 128)            0         
_________________________________________________________________
Flatten (Flatten)            (None, 1152)              0         
_________________________________________________________________
Dense_0 (Dense)              (None, 360)               415080    
_________________________________________________________________
relu_d_0 (Activation)        (None, 360)               0         
_________________________________________________________________
Dense_1 (Dense)              (None, 180)               64980     
_________________________________________________________________
relu_d_1 (Activation)        (None, 180)               0         
_________________________________________________________________
Reshape (Reshape)            (None, 9, 20)             0         
_________________________________________________________________
Ups_200 (UpSampling1D)       (None, 18, 20)            0         
_________________________________________________________________
Conv_200 (Conv1D)            (None, 18, 64)            3904      
_________________________________________________________________
relu_200 (Activation)        (None, 18, 64)            0         
_________________________________________________________________
Conv_210 (Conv1D)            (None, 18, 64)            16448     
_________________________________________________________________
relu_210 (Activation)        (None, 18, 64)            0         
_________________________________________________________________
Ups_201 (UpSampling1D)       (None, 36, 64)            0         
_________________________________________________________________
Conv_201 (Conv1D)            (None, 36, 128)           24704     
_________________________________________________________________
relu_201 (Activation)        (None, 36, 128)           0         
_________________________________________________________________
Conv_211 (Conv1D)            (None, 36, 128)           82048     
_________________________________________________________________
relu_211 (Activation)        (None, 36, 128)           0         
_________________________________________________________________
Ups_202 (UpSampling1D)       (None, 72, 128)           0         
_________________________________________________________________
Conv_202 (Conv1D)            (None, 72, 128)           49280     
_________________________________________________________________
relu_202 (Activation)        (None, 72, 128)           0         
_________________________________________________________________
Conv_212 (Conv1D)            (None, 72, 128)           98432     
_________________________________________________________________
relu_212 (Activation)        (None, 72, 128)           0         
_________________________________________________________________
Conv3_300 (Conv1D)           (None, 72, 10)            6400      
_________________________________________________________________
relu_300 (Activation)        (None, 72, 10)            0         
=================================================================
Total params: 863,578
Trainable params: 863,578
Non-trainable params: 0
_________________________________________________________________
__________________________________________________________________________________________________
Layer (type)                    Output Shape         Param #     Connected to                     
==================================================================================================
input_12 (InputLayer)           (None, 10, 72)       0                                            
__________________________________________________________________________________________________
Last_flatten (Flatten)          (None, 720)          0           input_12[0][0]                   
__________________________________________________________________________________________________
Last_Dense_0 (Dense)            (None, 72)           51912       Last_flatten[0][0]               
__________________________________________________________________________________________________
Last_Dense_1 (Dense)            (None, 72)           51912       Last_flatten[0][0]               
__________________________________________________________________________________________________
reshape_11 (Reshape)            (None, 72, 1)        0           Last_Dense_0[0][0]               
__________________________________________________________________________________________________
reshape_12 (Reshape)            (None, 72, 1)        0           Last_Dense_1[0][0]               
__________________________________________________________________________________________________
Last_Concat (Concatenate)       (None, 72, 2)        0           reshape_11[0][0]                 
                                                                 reshape_12[0][0]                 
==================================================================================================
Total params: 103,824
Trainable params: 103,824
Non-trainable params: 0
__________________________________________________________________________________________________
…
