Seed 0
Optimizer
{'lr': 0.0010000000474974513, 'beta_1': 0.8999999761581421, 'beta_2': 0.9990000128746033, 'decay': 9.999999974752427e-07, 'epsilon': 1e-07, 'amsgrad': False}
Prepross
_________________________________________________________________
Layer (type)                 Output Shape              Param #   
=================================================================
input_1 (InputLayer)         (None, 72, 2)             0         
_________________________________________________________________
up_sampling1d_1 (UpSampling1 (None, 360, 2)            0         
_________________________________________________________________
average_pooling1d_1 (Average (None, 72, 2)             0         
=================================================================
Total params: 0
Trainable params: 0
Non-trainable params: 0
_________________________________________________________________
_________________________________________________________________
Layer (type)                 Output Shape              Param #   
=================================================================
Origin_Input (InputLayer)    (None, 72, 2)             0         
_________________________________________________________________
Conv_0 (Conv1D)              (None, 72, 5)             100       
_________________________________________________________________
relu_0 (Activation)          (None, 72, 5)             0         
_________________________________________________________________
Conv_1 (Conv1D)              (None, 72, 18)            450       
_________________________________________________________________
relu_1 (Activation)          (None, 72, 18)            0         
_________________________________________________________________
AVG_100 (MaxPooling1D)       (None, 36, 18)            0         
_________________________________________________________________
Conv_100 (Conv1D)            (None, 36, 30)            1110      
_________________________________________________________________
relu_100 (Activation)        (None, 36, 30)            0         
_________________________________________________________________
Conv_110 (Conv1D)            (None, 36, 30)            4530      
_________________________________________________________________
relu_110 (Activation)        (None, 36, 30)            0         
_________________________________________________________________
AVG_101 (MaxPooling1D)       (None, 18, 30)            0         
_________________________________________________________________
Conv_101 (Conv1D)            (None, 18, 50)            3050      
_________________________________________________________________
relu_101 (Activation)        (None, 18, 50)            0         
_________________________________________________________________
Conv_111 (Conv1D)            (None, 18, 50)            12550     
_________________________________________________________________
relu_111 (Activation)        (None, 18, 50)            0         
_________________________________________________________________
AVG_102 (MaxPooling1D)       (None, 9, 50)             0         
_________________________________________________________________
Conv_102 (Conv1D)            (None, 9, 100)            10100     
_________________________________________________________________
relu_102 (Activation)        (None, 9, 100)            0         
_________________________________________________________________
Conv_112 (Conv1D)            (None, 9, 100)            40100     
_________________________________________________________________
relu_112 (Activation)        (None, 9, 100)            0         
_________________________________________________________________
Flatten (Flatten)            (None, 900)               0         
_________________________________________________________________
Dense_0 (Dense)              (None, 360)               324360    
_________________________________________________________________
relu_d_0 (Activation)        (None, 360)               0         
_________________________________________________________________
Dense_1 (Dense)              (None, 180)               64980     
_________________________________________________________________
relu_d_1 (Activation)        (None, 180)               0         
_________________________________________________________________
Dense_2 (Dense)              (None, 9)                 1629      
_________________________________________________________________
relu_d_2 (Activation)        (None, 9)                 0         
_________________________________________________________________
Reshape (Reshape)            (None, 9, 1)              0         
_________________________________________________________________
Ups_200 (UpSampling1D)       (None, 18, 1)             0         
_________________________________________________________________
Conv_200 (Conv1D)            (None, 18, 50)            200       
_________________________________________________________________
relu_200 (Activation)        (None, 18, 50)            0         
_________________________________________________________________
Conv_210 (Conv1D)            (None, 18, 50)            10050     
_________________________________________________________________
relu_210 (Activation)        (None, 18, 50)            0         
_________________________________________________________________
Ups_201 (UpSampling1D)       (None, 36, 50)            0         
_________________________________________________________________
Conv_201 (Conv1D)            (None, 36, 100)           15100     
_________________________________________________________________
relu_201 (Activation)        (None, 36, 100)           0         
_________________________________________________________________
Conv_211 (Conv1D)            (None, 36, 100)           50100     
_________________________________________________________________
relu_211 (Activation)        (None, 36, 100)           0         
_________________________________________________________________
Ups_202 (UpSampling1D)       (None, 72, 100)           0         
_________________________________________________________________
Conv_202 (Conv1D)            (None, 72, 100)           30100     
_________________________________________________________________
relu_202 (Activation)        (None, 72, 100)           0         
_________________________________________________________________
Conv_212 (Conv1D)            (None, 72, 100)           60100     
_________________________________________________________________
relu_212 (Activation)        (None, 72, 100)           0         
_________________________________________________________________
Conv3_300 (Conv1D)           (None, 72, 10)            5000      
_________________________________________________________________
relu_300 (Activation)        (None, 72, 10)            0         
=================================================================
Total params: 633,609
Trainable params: 633,609
Non-trainable params: 0
_________________________________________________________________
__________________________________________________________________________________________________
Layer (type)                    Output Shape         Param #     Connected to                     
==================================================================================================
Input_RC0 (InputLayer)          (None, 10, 72)       0                                            
__________________________________________________________________________________________________
Last_flatten (Flatten)          (None, 720)          0           Input_RC0[0][0]                  
__________________________________________________________________________________________________
Last_Dense_0 (Dense)            (None, 72)           51912       Last_flatten[0][0]               
__________________________________________________________________________________________________
Last_Dense_1 (Dense)            (None, 72)           51912       Last_flatten[0][0]               
__________________________________________________________________________________________________
reshape_1 (Reshape)             (None, 72, 1)        0           Last_Dense_0[0][0]               
__________________________________________________________________________________________________
reshape_2 (Reshape)             (None, 72, 1)        0           Last_Dense_1[0][0]               
__________________________________________________________________________________________________
Last_Concat (Concatenate)       (None, 72, 2)        0           reshape_1[0][0]                  
                                                                 reshape_2[0][0]                  
==================================================================================================
Total params: 103,824
Trainable params: 103,824
Non-trainable params: 0
__________________________________________________________________________________________________
…
