_________________________________________________________________
Layer (type)                 Output Shape              Param #   
=================================================================
Input_1 (InputLayer)         (None, 72, 11)            0         
_________________________________________________________________
Upsampler (Sequential)       (None, 72, 11)            0         
_________________________________________________________________
Sequential_1 (Sequential)    (None, 72, 3)             260369    
=================================================================
Total params: 260,369
Trainable params: 260,369
Non-trainable params: 0
_________________________________________________________________
_________________________________________________________________
Layer (type)                 Output Shape              Param #   
=================================================================
Bidir (Bidirectional)        (None, 72, 256)           142336    
_________________________________________________________________
Conv_1 (Conv1D)              (None, 72, 50)            102400    
_________________________________________________________________
activation_1 (Activation)    (None, 72, 50)            0         
_________________________________________________________________
average_pooling1d_1 (Average (None, 72, 50)            0         
_________________________________________________________________
Conv_2 (Conv1D)              (None, 72, 50)            12550     
_________________________________________________________________
activation_2 (Activation)    (None, 72, 50)            0         
_________________________________________________________________
average_pooling1d_2 (Average (None, 72, 50)            0         
_________________________________________________________________
Conv_3 (Conv1D)              (None, 72, 20)            3020      
_________________________________________________________________
activation_3 (Activation)    (None, 72, 20)            0         
_________________________________________________________________
dense_1 (Dense)              (None, 72, 3)             63        
=================================================================
Total params: 260,369
Trainable params: 260,369
Non-trainable params: 0
_________________________________________________________________
emis : type : Normalizer 
fitted : True 
values : (0.9890608787536621, 0.006443938706070185) 
  
o3 : type : Normalizer 
fitted : True 
values : (3.6597821235773154e-06, 4.7702924348413944e-06) 
…
