…
values : (0.00010348010255256668, 1.4999999621068127e-05) 
  
rl : type : Zero_One 
fitted : True 
values : (2.099999983329326e-05, 4.999999873689376e-06) 
  
t : type : Normalizer 
fitted : True 
values : (243.3359832763672, 25.461942672729492) 
  
ts : type : Normalizer 
fitted : True 
values : (283.5641174316406, 6.850484848022461) 
  

type : Var Supression 
 values : ['ts'] 

_________________________________________________________________
Layer (type)                 Output Shape              Param #   
=================================================================
input_3 (InputLayer)         (None, 72, 10)            0         
_________________________________________________________________
up_sampling1d_3 (UpSampling1 (None, 360, 10)           0         
_________________________________________________________________
average_pooling1d_3 (Average (None, 72, 10)            0         
=================================================================
Total params: 0
Trainable params: 0
Non-trainable params: 0
_________________________________________________________________
__________________________________________________________________________________________________
Layer (type)                    Output Shape         Param #     Connected to                     
==================================================================================================
Origin_Input (InputLayer)       (None, 72, 10)       0                                            
__________________________________________________________________________________________________
Conv_0 (Conv1D)                 (None, 72, 64)       6400        Origin_Input[0][0]               
__________________________________________________________________________________________________
elu_0 (ELU)                     (None, 72, 64)       0           Conv_0[0][0]                     
__________________________________________________________________________________________________
spatial_dropout1d_21 (SpatialDr (None, 72, 64)       0           elu_0[0][0]                      
__________________________________________________________________________________________________
Conv_1 (Conv1D)                 (None, 72, 128)      81920       spatial_dropout1d_21[0][0]       
__________________________________________________________________________________________________
elu_1 (ELU)                     (None, 72, 128)      0           Conv_1[0][0]                     
__________________________________________________________________________________________________
spatial_dropout1d_22 (SpatialDr (None, 72, 128)      0           elu_1[0][0]                      
__________________________________________________________________________________________________
Conv_2 (Conv1D)                 (None, 72, 256)      262144      spatial_dropout1d_22[0][0]       
__________________________________________________________________________________________________
elu_2 (ELU)                     (None, 72, 256)      0           Conv_2[0][0]                     
__________________________________________________________________________________________________
spatial_dropout1d_23 (SpatialDr (None, 72, 256)      0           elu_2[0][0]                      
__________________________________________________________________________________________________
AVG_100 (AveragePooling1D)      (None, 36, 256)      0           spatial_dropout1d_23[0][0]       
__________________________________________________________________________________________________
Conv_100 (Conv1D)               (None, 36, 128)      65664       AVG_100[0][0]                    
__________________________________________________________________________________________________
elu_100 (ELU)                   (None, 36, 128)      0           Conv_100[0][0]                   
__________________________________________________________________________________________________
spatial_dropout1d_24 (SpatialDr (None, 36, 128)      0           elu_100[0][0]                    
__________________________________________________________________________________________________
Conv_110 (Conv1D)               (None, 36, 128)      82048       spatial_dropout1d_24[0][0]       
__________________________________________________________________________________________________
elu_110 (ELU)                   (None, 36, 128)      0           Conv_110[0][0]                   
__________________________________________________________________________________________________
spatial_dropout1d_25 (SpatialDr (None, 36, 128)      0           elu_110[0][0]                    
__________________________________________________________________________________________________
AVG_101 (AveragePooling1D)      (None, 18, 128)      0           spatial_dropout1d_25[0][0]       
__________________________________________________________________________________________________
Conv_101 (Conv1D)               (None, 18, 100)      25700       AVG_101[0][0]                    
__________________________________________________________________________________________________
elu_101 (ELU)                   (None, 18, 100)      0           Conv_101[0][0]                   
__________________________________________________________________________________________________
spatial_dropout1d_26 (SpatialDr (None, 18, 100)      0           elu_101[0][0]                    
__________________________________________________________________________________________________
Conv_111 (Conv1D)               (None, 18, 100)      50100       spatial_dropout1d_26[0][0]       
__________________________________________________________________________________________________
elu_111 (ELU)                   (None, 18, 100)      0           Conv_111[0][0]                   
__________________________________________________________________________________________________
spatial_dropout1d_27 (SpatialDr (None, 18, 100)      0           elu_111[0][0]                    
__________________________________________________________________________________________________
AVG_102 (AveragePooling1D)      (None, 9, 100)       0           spatial_dropout1d_27[0][0]       
__________________________________________________________________________________________________
Conv_102 (Conv1D)               (None, 9, 64)        12864       AVG_102[0][0]                    
__________________________________________________________________________________________________
elu_102 (ELU)                   (None, 9, 64)        0           Conv_102[0][0]                   
__________________________________________________________________________________________________
spatial_dropout1d_28 (SpatialDr (None, 9, 64)        0           elu_102[0][0]                    
__________________________________________________________________________________________________
Conv_112 (Conv1D)               (None, 9, 64)        16448       spatial_dropout1d_28[0][0]       
__________________________________________________________________________________________________
elu_112 (ELU)                   (None, 9, 64)        0           Conv_112[0][0]                   
__________________________________________________________________________________________________
spatial_dropout1d_29 (SpatialDr (None, 9, 64)        0           elu_112[0][0]                    
__________________________________________________________________________________________________
Dense_0 (Conv1D)                (None, 9, 128)       73856       spatial_dropout1d_29[0][0]       
__________________________________________________________________________________________________
tanh_d_0 (Activation)           (None, 9, 128)       0           Dense_0[0][0]                    
__________________________________________________________________________________________________
spatial_dropout1d_30 (SpatialDr (None, 9, 128)       0           tanh_d_0[0][0]                   
__________________________________________________________________________________________________
Dense_1 (Conv1D)                (None, 9, 128)       147584      spatial_dropout1d_30[0][0]       
__________________________________________________________________________________________________
tanh_d_1 (Activation)           (None, 9, 128)       0           Dense_1[0][0]                    
__________________________________________________________________________________________________
spatial_dropout1d_31 (SpatialDr (None, 9, 128)       0           tanh_d_1[0][0]                   
__________________________________________________________________________________________________
Concat_300 (Concatenate)        (None, 9, 192)       0           spatial_dropout1d_31[0][0]       
                                                                 spatial_dropout1d_29[0][0]       
__________________________________________________________________________________________________
Ups_200 (UpSampling1D)          (None, 18, 192)      0           Concat_300[0][0]                 
__________________________________________________________________________________________________
Conv_200 (Conv1D)               (None, 18, 64)       36928       Ups_200[0][0]                    
__________________________________________________________________________________________________
elu_200 (ELU)                   (None, 18, 64)       0           Conv_200[0][0]                   
__________________________________________________________________________________________________
spatial_dropout1d_32 (SpatialDr (None, 18, 64)       0           elu_200[0][0]                    
__________________________________________________________________________________________________
Conv_210 (Conv1D)               (None, 18, 64)       16448       spatial_dropout1d_32[0][0]       
__________________________________________________________________________________________________
elu_210 (ELU)                   (None, 18, 64)       0           Conv_210[0][0]                   
__________________________________________________________________________________________________
spatial_dropout1d_33 (SpatialDr (None, 18, 64)       0           elu_210[0][0]                    
__________________________________________________________________________________________________
Concat_301 (Concatenate)        (None, 18, 164)      0           spatial_dropout1d_33[0][0]       
                                                                 spatial_dropout1d_27[0][0]       
__________________________________________________________________________________________________
Ups_201 (UpSampling1D)          (None, 36, 164)      0           Concat_301[0][0]                 
__________________________________________________________________________________________________
Conv_201 (Conv1D)               (None, 36, 128)      63104       Ups_201[0][0]                    
__________________________________________________________________________________________________
elu_201 (ELU)                   (None, 36, 128)      0           Conv_201[0][0]                   
__________________________________________________________________________________________________
spatial_dropout1d_34 (SpatialDr (None, 36, 128)      0           elu_201[0][0]                    
__________________________________________________________________________________________________
Conv_211 (Conv1D)               (None, 36, 128)      82048       spatial_dropout1d_34[0][0]       
__________________________________________________________________________________________________
elu_211 (ELU)                   (None, 36, 128)      0           Conv_211[0][0]                   
__________________________________________________________________________________________________
spatial_dropout1d_35 (SpatialDr (None, 36, 128)      0           elu_211[0][0]                    
__________________________________________________________________________________________________
Concat_302 (Concatenate)        (None, 36, 256)      0           spatial_dropout1d_35[0][0]       
                                                                 spatial_dropout1d_25[0][0]       
__________________________________________________________________________________________________
Ups_202 (UpSampling1D)          (None, 72, 256)      0           Concat_302[0][0]                 
__________________________________________________________________________________________________
Conv_202 (Conv1D)               (None, 72, 256)      196864      Ups_202[0][0]                    
__________________________________________________________________________________________________
elu_202 (ELU)                   (None, 72, 256)      0           Conv_202[0][0]                   
__________________________________________________________________________________________________
spatial_dropout1d_36 (SpatialDr (None, 72, 256)      0           elu_202[0][0]                    
__________________________________________________________________________________________________
Conv_212 (Conv1D)               (None, 72, 256)      393472      spatial_dropout1d_36[0][0]       
__________________________________________________________________________________________________
elu_212 (ELU)                   (None, 72, 256)      0           Conv_212[0][0]                   
__________________________________________________________________________________________________
spatial_dropout1d_37 (SpatialDr (None, 72, 256)      0           elu_212[0][0]                    
__________________________________________________________________________________________________
Conv3_300 (Conv1D)              (None, 72, 256)      655360      spatial_dropout1d_37[0][0]       
__________________________________________________________________________________________________
elu_300 (ELU)                   (None, 72, 256)      0           Conv3_300[0][0]                  
__________________________________________________________________________________________________
spatial_dropout1d_38 (SpatialDr (None, 72, 256)      0           elu_300[0][0]                    
__________________________________________________________________________________________________
Conv3_301 (Conv1D)              (None, 72, 128)      163840      spatial_dropout1d_38[0][0]       
__________________________________________________________________________________________________
elu_301 (ELU)                   (None, 72, 128)      0           Conv3_301[0][0]                  
__________________________________________________________________________________________________
spatial_dropout1d_39 (SpatialDr (None, 72, 128)      0           elu_301[0][0]                    
__________________________________________________________________________________________________
Conv3_302 (Conv1D)              (None, 72, 2)        768         spatial_dropout1d_39[0][0]       
__________________________________________________________________________________________________
linear_302 (Activation)         (None, 72, 2)        0           Conv3_302[0][0]                  
__________________________________________________________________________________________________
spatial_dropout1d_40 (SpatialDr (None, 72, 2)        0           linear_302[0][0]                 
==================================================================================================
Total params: 2,433,560
Trainable params: 2,433,560
Non-trainable params: 0
__________________________________________________________________________________________________


Unet
list_of_filters_unet =  [[64, 128, 256], [128, 128, 100, 100, 64, 64], [128, 128], [64, 64, 128, 128, 256, 256], [256, 128, 2]]
…
