…
values : (2.099999983329326e-05, 4.999999873689376e-06) 
  
t : type : Normalizer 
fitted : True 
values : (243.3359832763672, 25.461942672729492) 
  
ts : type : Normalizer 
fitted : True 
values : (283.5641174316406, 6.850484848022461) 
  

type : Var Supression 
 values : ['ts'] 

__________________________________________________________________________________________________
Layer (type)                    Output Shape         Param #     Connected to                     
==================================================================================================
Input_0 (InputLayer)            (None, 72, 10)       0                                            
__________________________________________________________________________________________________
Conv_u_1 (Conv1D)               (None, 72, 64)       19264       Input_0[0][0]                    
__________________________________________________________________________________________________
elu_u_1 (ELU)                   (None, 72, 64)       0           Conv_u_1[0][0]                   
__________________________________________________________________________________________________
Conv_u_2 (Conv1D)               (None, 72, 64)       122944      elu_u_1[0][0]                    
__________________________________________________________________________________________________
elu_u_2 (ELU)                   (None, 72, 64)       0           Conv_u_2[0][0]                   
__________________________________________________________________________________________________
Conv_u_3 (Conv1D)               (None, 72, 128)      245888      elu_u_2[0][0]                    
__________________________________________________________________________________________________
Flip_0 (Lambda)                 (None, 72, 10)       0           Input_0[0][0]                    
__________________________________________________________________________________________________
elu_u_3 (ELU)                   (None, 72, 128)      0           Conv_u_3[0][0]                   
__________________________________________________________________________________________________
Conv_d_1 (Conv1D)               (None, 72, 128)      12928       Flip_0[0][0]                     
__________________________________________________________________________________________________
Conv_u_4 (Conv1D)               (None, 72, 128)      163968      elu_u_3[0][0]                    
__________________________________________________________________________________________________
elu_d_1 (ELU)                   (None, 72, 128)      0           Conv_d_1[0][0]                   
__________________________________________________________________________________________________
elu_u_4 (ELU)                   (None, 72, 128)      0           Conv_u_4[0][0]                   
__________________________________________________________________________________________________
Conv_d_2 (Conv1D)               (None, 72, 128)      82048       elu_d_1[0][0]                    
__________________________________________________________________________________________________
Conv_u_5 (Conv1D)               (None, 72, 128)      131200      elu_u_4[0][0]                    
__________________________________________________________________________________________________
elu_d_2 (ELU)                   (None, 72, 128)      0           Conv_d_2[0][0]                   
__________________________________________________________________________________________________
elu_u_5 (ELU)                   (None, 72, 128)      0           Conv_u_5[0][0]                   
__________________________________________________________________________________________________
Conv_d_3 (Conv1D)               (None, 72, 64)       24640       elu_d_2[0][0]                    
__________________________________________________________________________________________________
Conv_u_6 (Conv1D)               (None, 72, 256)      164096      elu_u_5[0][0]                    
__________________________________________________________________________________________________
elu_d_3 (ELU)                   (None, 72, 64)       0           Conv_d_3[0][0]                   
__________________________________________________________________________________________________
elu_u_6 (ELU)                   (None, 72, 256)      0           Conv_u_6[0][0]                   
__________________________________________________________________________________________________
Flip_1 (Lambda)                 (None, 72, 64)       0           elu_d_3[0][0]                    
__________________________________________________________________________________________________
Concat_0 (Concatenate)          (None, 72, 320)      0           elu_u_6[0][0]                    
                                                                 Flip_1[0][0]                     
__________________________________________________________________________________________________
Conv_c_0 (Conv1D)               (None, 72, 512)      1638912     Concat_0[0][0]                   
__________________________________________________________________________________________________
elu_c_1 (ELU)                   (None, 72, 512)      0           Conv_c_0[0][0]                   
__________________________________________________________________________________________________
Conv_c_1 (Conv1D)               (None, 72, 256)      1048832     elu_c_1[0][0]                    
__________________________________________________________________________________________________
elu_c_2 (ELU)                   (None, 72, 256)      0           Conv_c_1[0][0]                   
__________________________________________________________________________________________________
Conv_c_2 (Conv1D)               (None, 72, 256)      327936      elu_c_2[0][0]                    
__________________________________________________________________________________________________
elu_c_3 (ELU)                   (None, 72, 256)      0           Conv_c_2[0][0]                   
__________________________________________________________________________________________________
Conv_c_3 (Conv1D)               (None, 72, 128)      98432       elu_c_3[0][0]                    
__________________________________________________________________________________________________
elu_c_4 (ELU)                   (None, 72, 128)      0           Conv_c_3[0][0]                   
__________________________________________________________________________________________________
Conv_c_4 (Conv1D)               (None, 72, 2)        770         elu_c_4[0][0]                    
__________________________________________________________________________________________________
linear_c_5 (Activation)         (None, 72, 2)        0           Conv_c_4[0][0]                   
==================================================================================================
Total params: 4,081,858
Trainable params: 4,081,858
Non-trainable params: 0
__________________________________________________________________________________________________


Unet
list_of_filters_unet =  [[64, 64, 128, 128, 256], [128, 128, 100, 100, 128, 128], [128, 128], [128, 128, 128, 128, 256, 512], [512, 256, 2]]
…
