…
ts : type : Normalizer 
fitted : True 
values : (283.5641174316406, 6.850484848022461) 
  

type : Prodkernel 
variable : [('pl', 'ts')] 
params :   
  
o3 : type : Level_Normalizer 
fitted : False 
values : [… pl : type : Level_Normalizer 
fitted : False 
values : [… q : type : Level_Normalizer 
fitted : False 
values : [… type : Var Supression 
 values : ['pl', 'rl', 'ri', 'ts'] 

_________________________________________________________________
Layer (type)                 Output Shape              Param #   
=================================================================
input_1 (InputLayer)         (None, 72, 8)             0         
_________________________________________________________________
up_sampling1d_1 (UpSampling1 (None, 360, 8)            0         
_________________________________________________________________
average_pooling1d_1 (Average (None, 72, 8)             0         
=================================================================
Total params: 0
Trainable params: 0
Non-trainable params: 0
_________________________________________________________________
__________________________________________________________________________________________________
Layer (type)                    Output Shape         Param #     Connected to                     
==================================================================================================
Origin_Input (InputLayer)       (None, 72, 8)        0                                            
__________________________________________________________________________________________________
Conv_0 (Conv1D)                 (None, 72, 64)       5120        Origin_Input[0][0]               
__________________________________________________________________________________________________
elu_0 (ELU)                     (None, 72, 64)       0           Conv_0[0][0]                     
__________________________________________________________________________________________________
Conv_1 (Conv1D)                 (None, 72, 128)      81920       elu_0[0][0]                      
__________________________________________________________________________________________________
elu_1 (ELU)                     (None, 72, 128)      0           Conv_1[0][0]                     
__________________________________________________________________________________________________
Conv_2 (Conv1D)                 (None, 72, 128)      81920       elu_1[0][0]                      
__________________________________________________________________________________________________
elu_2 (ELU)                     (None, 72, 128)      0           Conv_2[0][0]                     
__________________________________________________________________________________________________
AVG_100 (AveragePooling1D)      (None, 36, 128)      0           elu_2[0][0]                      
__________________________________________________________________________________________________
Conv_100 (Conv1D)               (None, 36, 50)       12850       AVG_100[0][0]                    
__________________________________________________________________________________________________
elu_100 (ELU)                   (None, 36, 50)       0           Conv_100[0][0]                   
__________________________________________________________________________________________________
Conv_110 (Conv1D)               (None, 36, 50)       12550       elu_100[0][0]                    
__________________________________________________________________________________________________
elu_110 (ELU)                   (None, 36, 50)       0           Conv_110[0][0]                   
__________________________________________________________________________________________________
AVG_101 (AveragePooling1D)      (None, 18, 50)       0           elu_110[0][0]                    
__________________________________________________________________________________________________
Conv_101 (Conv1D)               (None, 18, 75)       7575        AVG_101[0][0]                    
__________________________________________________________________________________________________
elu_101 (ELU)                   (None, 18, 75)       0           Conv_101[0][0]                   
__________________________________________________________________________________________________
Conv_111 (Conv1D)               (None, 18, 75)       28200       elu_101[0][0]                    
__________________________________________________________________________________________________
elu_111 (ELU)                   (None, 18, 75)       0           Conv_111[0][0]                   
__________________________________________________________________________________________________
AVG_102 (AveragePooling1D)      (None, 9, 75)        0           elu_111[0][0]                    
__________________________________________________________________________________________________
Conv_102 (Conv1D)               (None, 9, 100)       15100       AVG_102[0][0]                    
__________________________________________________________________________________________________
elu_102 (ELU)                   (None, 9, 100)       0           Conv_102[0][0]                   
__________________________________________________________________________________________________
Conv_112 (Conv1D)               (None, 9, 100)       40100       elu_102[0][0]                    
__________________________________________________________________________________________________
elu_112 (ELU)                   (None, 9, 100)       0           Conv_112[0][0]                   
__________________________________________________________________________________________________
Flatten (Flatten)               (None, 900)          0           elu_112[0][0]                    
__________________________________________________________________________________________________
Dense_0 (Dense)                 (None, 180)          162180      Flatten[0][0]                    
__________________________________________________________________________________________________
sigmoid_d_0 (Activation)        (None, 180)          0           Dense_0[0][0]                    
__________________________________________________________________________________________________
Dense_1 (Dense)                 (None, 180)          32580       sigmoid_d_0[0][0]                
__________________________________________________________________________________________________
sigmoid_d_1 (Activation)        (None, 180)          0           Dense_1[0][0]                    
__________________________________________________________________________________________________
Reshape (Reshape)               (None, 9, 20)        0           sigmoid_d_1[0][0]                
__________________________________________________________________________________________________
Concat_300 (Concatenate)        (None, 9, 120)       0           Reshape[0][0]                    
                                                                 elu_112[0][0]                    
__________________________________________________________________________________________________
Ups_200 (UpSampling1D)          (None, 18, 120)      0           Concat_300[0][0]                 
__________________________________________________________________________________________________
Conv_200 (Conv1D)               (None, 18, 50)       12050       Ups_200[0][0]                    
__________________________________________________________________________________________________
elu_200 (ELU)                   (None, 18, 50)       0           Conv_200[0][0]                   
__________________________________________________________________________________________________
Conv_210 (Conv1D)               (None, 18, 50)       10050       elu_200[0][0]                    
__________________________________________________________________________________________________
elu_210 (ELU)                   (None, 18, 50)       0           Conv_210[0][0]                   
__________________________________________________________________________________________________
Concat_301 (Concatenate)        (None, 18, 125)      0           elu_210[0][0]                    
                                                                 elu_111[0][0]                    
__________________________________________________________________________________________________
Ups_201 (UpSampling1D)          (None, 36, 125)      0           Concat_301[0][0]                 
__________________________________________________________________________________________________
Conv_201 (Conv1D)               (None, 36, 100)      25100       Ups_201[0][0]                    
__________________________________________________________________________________________________
elu_201 (ELU)                   (None, 36, 100)      0           Conv_201[0][0]                   
__________________________________________________________________________________________________
Conv_211 (Conv1D)               (None, 36, 100)      50100       elu_201[0][0]                    
__________________________________________________________________________________________________
elu_211 (ELU)                   (None, 36, 100)      0           Conv_211[0][0]                   
__________________________________________________________________________________________________
Concat_302 (Concatenate)        (None, 36, 150)      0           elu_211[0][0]                    
                                                                 elu_110[0][0]                    
__________________________________________________________________________________________________
Ups_202 (UpSampling1D)          (None, 72, 150)      0           Concat_302[0][0]                 
__________________________________________________________________________________________________
Conv_202 (Conv1D)               (None, 72, 200)      60200       Ups_202[0][0]                    
__________________________________________________________________________________________________
elu_202 (ELU)                   (None, 72, 200)      0           Conv_202[0][0]                   
__________________________________________________________________________________________________
Conv_212 (Conv1D)               (None, 72, 200)      240200      elu_202[0][0]                    
__________________________________________________________________________________________________
elu_212 (ELU)                   (None, 72, 200)      0           Conv_212[0][0]                   
__________________________________________________________________________________________________
Conv3_300 (Conv1D)              (None, 72, 300)      300000      elu_212[0][0]                    
__________________________________________________________________________________________________
elu_300 (ELU)                   (None, 72, 300)      0           Conv3_300[0][0]                  
__________________________________________________________________________________________________
Conv3_301 (Conv1D)              (None, 72, 2)        1800        elu_300[0][0]                    
__________________________________________________________________________________________________
linear_301 (Activation)         (None, 72, 2)        0           Conv3_301[0][0]                  
==================================================================================================
Total params: 1,179,595
Trainable params: 1,179,595
Non-trainable params: 0
__________________________________________________________________________________________________


Unet
list_of_filters_unet =  [[64, 128, 128], [50, 50, 75, 75, 100, 100], [20, 20], [50, 50, 100, 100, 200, 200], [300, 2]]
…
